Model: "functional_5"
_________________________________________________________________
Layer (type)                 Output Shape              Param #   
=================================================================
input_8 (InputLayer)         [(None, 32, 32, 3)]       0         
_________________________________________________________________
conv2d_6 (Conv2D)            (None, 32, 32, 32)        896       
_________________________________________________________________
conv2d_7 (Conv2D)            (None, 32, 32, 32)        9248      
_________________________________________________________________
batch_normalization_3 (Batch (None, 32, 32, 32)        128       
_________________________________________________________________
activation_3 (Activation)    (None, 32, 32, 32)        0         
_________________________________________________________________
max_pooling2d_2 (MaxPooling2 (None, 16, 16, 32)        0         
_________________________________________________________________
dropout (Dropout)            (None, 16, 16, 32)        0         
_________________________________________________________________
conv2d_8 (Conv2D)            (None, 16, 16, 64)        18496     
_________________________________________________________________
conv2d_9 (Conv2D)            (None, 16, 16, 64)        36928     
_________________________________________________________________
batch_normalization_4 (Batch (None, 16, 16, 64)        256       
_________________________________________________________________
activation_4 (Activation)    (None, 16, 16, 64)        0         
_________________________________________________________________
max_pooling2d_3 (MaxPooling2 (None, 8, 8, 64)          0         
_________________________________________________________________
dropout_1 (Dropout)          (None, 8, 8, 64)          0         
_________________________________________________________________
conv2d_10 (Conv2D)           (None, 8, 8, 128)         73856     
_________________________________________________________________
conv2d_11 (Conv2D)           (None, 8, 8, 128)         147584    
_________________________________________________________________
batch_normalization_5 (Batch (None, 8, 8, 128)         512       
_________________________________________________________________
activation_5 (Activation)    (None, 8, 8, 128)         0         
_________________________________________________________________
max_pooling2d_4 (MaxPooling2 (None, 4, 4, 128)         0         
_________________________________________________________________
dropout_2 (Dropout)          (None, 4, 4, 128)         0         
_________________________________________________________________
conv2d_12 (Conv2D)           (None, 4, 4, 256)         295168    
_________________________________________________________________
conv2d_13 (Conv2D)           (None, 4, 4, 256)         590080    
_________________________________________________________________
batch_normalization_6 (Batch (None, 4, 4, 256)         1024      
_________________________________________________________________
activation_6 (Activation)    (None, 4, 4, 256)         0         
_________________________________________________________________
max_pooling2d_5 (MaxPooling2 (None, 2, 2, 256)         0         
_________________________________________________________________
dropout_3 (Dropout)          (None, 2, 2, 256)         0         
_________________________________________________________________
flatten_2 (Flatten)          (None, 1024)              0         
_________________________________________________________________
dense_4 (Dense)              (None, 512)               524800    
_________________________________________________________________
dropout_4 (Dropout)          (None, 512)               0         
_________________________________________________________________
dense_5 (Dense)              (None, 256)               131328    
_________________________________________________________________
dropout_5 (Dropout)          (None, 256)               0         
_________________________________________________________________
dense_6 (Dense)              (None, 10)                2570      
=================================================================
Total params: 1,832,874
Trainable params: 1,831,914
Non-trainable params: 960
_________________________________________________________________
